name: "Zeiler_conv5"

input: "image"
input_dim: 1
input_dim: 3
input_dim: 224
input_dim: 224

input: "roi"
input_dim: 1 
input_dim: 5 # [batch ind, x1, y1, x2, y2] zero-based indexing
input_dim: 1
input_dim: 1

layer {
	bottom: "image"
	top: "conv1"
	name: "conv1"
	type: "Convolution"
	param {
      	       name: "fc1_w"
	       lr_mult: 1
	}
	param {
	        name: "fc1_b"
	        lr_mult: 2
	}
	convolution_param {
		num_output: 64
		pad: 1
		kernel_size: 3
                weight_filler {
	          type: "gaussian"
	          std: 0.01
	        }
	        bias_filler {
	          type: "constant"
	          value: 0
	        }
	}
}

layer {
	bottom: "conv1"
	top: "conv1"
	name: "relu1"
	type: "ReLU"
}

layer {
	bottom: "conv1"
	top: "pool1"
	name: "pool1"
	type: "Pooling"
	pooling_param {
		pool: MAX
		kernel_size: 2
		stride: 2
	}
}

layer {
	bottom: "pool1"
	top: "conv2"
	name: "conv2"
	param {
      	       name: "fc2_w"
	       lr_mult: 1
	}
	param {
	        name: "fc2_b"
	        lr_mult: 2
	}
	type: "Convolution"
	convolution_param {
		num_output: 128
		pad: 1
		kernel_size: 3
		weight_filler {
	          type: "gaussian"
	          std: 0.01
	        }
	        bias_filler {
	          type: "constant"
	          value: 0
	        }
	}
}

layer {
	bottom: "conv2"
	top: "conv2"
	name: "relu2"
	type: "ReLU"
}

layer {
	bottom: "conv2"
	top: "pool2"
	name: "pool2"
	type: "Pooling"
	pooling_param {
		pool: MAX
		kernel_size: 2
		stride: 2
	}
}

layer {
	bottom: "pool2"
	top: "conv3_1"
	name: "conv3_1"
	param {
      	       name: "fc3_1_w"
	       lr_mult: 1
	}
	param {
	        name: "fc3_1_b"
	        lr_mult: 2
	}
	type: "Convolution"
	convolution_param {
		num_output: 256
		pad: 1
		kernel_size: 3
		weight_filler {
	          type: "gaussian"
	          std: 0.01
	        }
	        bias_filler {
	          type: "constant"
	          value: 0
	        }
	}
}

layer {
	bottom: "conv3_1"
	top: "conv3_1"
	name: "relu3_1"
	type: "ReLU"
}

layer {
	bottom: "conv3_1"
	top: "conv3_2"
	name: "conv3_2"
	param {
      	       name: "fc3_2_w"
	       lr_mult: 1
	}
	param {
	        name: "fc3_2_b"
	        lr_mult: 2
	}
	type: "Convolution"
	convolution_param {
		num_output: 256
		pad: 1
		kernel_size: 3
		weight_filler {
	          type: "gaussian"
	          std: 0.01
	        }
	        bias_filler {
	          type: "constant"
	          value: 0
	        }
	}
}

layer {
	bottom: "conv3_2"
	top: "conv3_2"
	name: "relu3_2"
	type: "ReLU"
}

layer {
  name: "roi_pool3"
  type: "ROIPooling"
  bottom: "conv3_2"
  bottom: "roi"
  top: "pool3"
  roi_pooling_param {
    pooled_h: 9
    pooled_w: 9
    spatial_scale: 0.25 #(1/4)
  }
}
layer {
  name: "fc4"
  type: "InnerProduct"
  bottom: "pool3"
  top: "fc4"
  param {
    name: "fc4_w"
    lr_mult: 1
  }
  param {
    name: "fc4_b"
    lr_mult: 2
  }
  inner_product_param {
    num_output: 4096
    weight_filler {
      type: "gaussian"
      std: 0.01
    }
    bias_filler {
      type: "constant"
      value: 0
    }
  }
}
layer {
  name: "norm4"
  type: "Normalization"
  bottom: "fc4"
  top: "norm4"
}
